hw2/weight_logistic.npy (npy, 928 bytes, 1 tensors)

array f8 [106]
000000 87 51 47 14 9a 4f d6 3f 92 8d 83 ae 0e 68 b3 3f
       0.3486085126908382 0.07580653915970562
000010 3a ba 4e 0e 45 da d9 3f 49 d1 13 4c 1b 0a 03 40
       0.40394712826938284 2.379934877733977
000020 ec 0c 76 52 f9 9c d0 3f dc 69 97 df 9d 79 d7 3f
       0.25958092739911254 0.36679789385894224
000030 ae 16 c2 95 20 e4 c0 3f ce db 64 dd 87 dc 96 3f
       0.13196189224634253 0.022325632942024325
000040 5f 6a 37 d4 22 40 e8 bf 94 80 74 2b 57 3f c0 3f
       -0.7578291077473515 0.12693299886541765
000050 35 8a 40 85 a4 b5 b4 3f 6b eb 3c d7 8f 96 ae bf
       0.08089664700722994 -0.05974244596878616
000060 9c 85 3e bf d5 71 7b bf b5 67 38 89 4f eb de bf
       -0.0067003583425572465 -0.4831122245828923
000070 38 17 6d d0 eb 0c c0 bf 22 a6 34 21 c7 1c c9 bf
       -0.12539432217652702 -0.19619073029871098
000080 ec 5e c5 3e a1 77 ca bf ae 9d ba f1 5c 35 b4 bf
       -0.20677581372250786 -0.07893925572954316
000090 82 5d 21 54 4f f6 be bf 38 9a 46 46 39 62 c2 bf
       -0.12094589046443185 -0.14362255031046955
0000a0 f6 bc bf 37 17 5c cd bf b1 cd 66 ad ed a7 c5 bf
       -0.2293728849613001 -0.16918726889489968
0000b0 29 aa e7 7f f0 b4 9c 3f 0d b8 13 74 41 c0 a0 3f
       0.02803397923154641 0.03271679441409967
0000c0 b7 ba 69 ed f7 d9 d1 3f 06 d9 a1 bf 9d 6c c9 3f
       0.2789287394033794 0.1986272035316647
0000d0 49 cc 2e f2 fc 2f c6 bf 9a 1a 38 f0 d8 11 d0 3f
       -0.17333947968799837 0.2510893197908587
0000e0 10 d9 ca 72 72 8e e7 bf 5d ca 3f 7c 67 ba ca 3f
       -0.7361385576284949 0.20881360594610757
0000f0 ba aa 26 bf e6 93 84 bf e4 12 44 85 c9 fb d6 bf
       -0.010047724445788265 -0.35911787046670285
000100 66 d8 f0 ef c5 9a a8 3f 53 e1 f2 be 21 a6 e1 3f
       0.04805582574810856 0.5515297631709849
000110 f0 cb 41 6d 49 71 be bf a0 2f 5c 65 70 0b e7 bf
       -0.11891611974151295 -0.7201463679971205
000120 93 81 0d fa 8b 4d ca bf 90 8b 30 39 b4 63 c4 bf
       -0.20549154004676193 -0.15929272453749066
000130 61 fa 35 60 d5 d7 cc bf 6f 98 69 f1 17 c4 9f bf
       -0.22533671567721839 -0.031021474942825863
000140 2e 0f d7 f3 c4 35 cb bf 7c 0b aa 5f cc 77 98 3f
       -0.21257841020826035 0.02389449437988443
000150 5b 7f 13 68 af d9 d2 bf 98 1e e5 ed b3 e4 d1 bf
       -0.29453644908607196 -0.2795839141076413
000160 6f 9e 22 74 c6 8c ce bf aa dc 22 f2 56 89 dd bf
       -0.23867111845651176 -0.4615075459109429
000170 f5 c0 84 5d bb ac d5 bf a6 b5 8f 2d ee 8c b0 bf
       -0.3386677182452467 -0.0646504269822886
000180 c7 14 b3 28 7f f1 93 bf a3 47 ea 1b b9 8b c1 bf
       -0.019475924357512022 -0.13707651007694918
000190 83 9f b7 0f a1 a8 80 bf 1b 2b d5 08 28 a7 c6 bf
       -0.00813413457122159 -0.17697620803149836
0001a0 27 ca dd 8e 7a 99 c1 bf aa d7 72 5e aa ea a4 bf
       -0.13749629951378603 -0.040852855710382954
0001b0 d3 30 41 c3 62 d0 c8 3f 53 f0 0f 1a e9 e2 b4 bf
       0.19385942968290823 -0.08158738027845062
0001c0 c3 15 12 80 7e 11 d2 bf bf 80 22 e3 38 bb b8 3f
       -0.2823177576722992 0.09660678429873125
0001d0 e8 a1 8d 41 d9 a4 d1 3f 1c 0e 9f 21 07 3e a2 bf
       0.2756865635078882 -0.035629484991229726
0001e0 98 3f c1 7d a9 99 aa 3f d8 71 ed 2e 35 99 7b 3f
       0.0519535985955592 0.006737907168681244
0001f0 90 3f 49 17 5d d0 91 bf 2c 3d ad 0e 88 7f b1 3f
       -0.017396406694671962 0.06835222585981587
000200 08 9c 63 02 b0 c6 b1 3f 7a 7c 40 54 7f 45 bd 3f
       0.06943798120811107 0.11434169585162293
000210 c1 66 de 4d 2b 43 a6 3f 63 62 c4 3f 5a ec 97 bf
       0.04348120999857264 -0.02336255087093021
000220 2e 9e 58 a8 29 d0 b9 3f 62 4b 26 ce 9d 70 8a bf
       0.10083256111158143 -0.012910111287771368
000230 9d 34 dc f4 40 2a a4 3f de c4 56 17 3d f2 aa 3f
       0.039384870424421715 0.05262938413523853
000240 28 82 1e 19 85 24 b8 3f 24 5c 5d 4f 18 a0 ae 3f
       0.09430724967251847 0.05981517762000291
000250 09 c2 11 50 7f 73 c0 3f ed f3 4a f1 a4 f1 8b 3f
       0.12852469834935246 0.013644493688269999
000260 92 3f 86 28 86 2b ac 3f 31 87 4e 4c c4 4c ae 3f
       0.05501956219370564 0.05917943412283789
000270 69 c7 c4 54 33 dc ee bf 44 0d 35 77 80 ec 77 3f
       -0.9643799453390162 0.005840780085523637
000280 d4 d2 4d f8 5b 2e a3 3f dd 47 ca dd 6b 9d 99 3f
       0.037463068066164645 0.02501457730483724
000290 31 72 96 2d 39 ca b0 3f d8 de c1 8b ee 5e ac 3f
       0.06558568346958606 0.055411772308557594
0002a0 ac 6f f9 4a 2d ef ad 3f d0 9e 25 42 66 04 bc 3f
       0.05846540012564047 0.10944213023105509
0002b0 0d 15 03 43 46 05 b3 3f 41 79 fd 19 ef b1 b5 3f
       0.07429923187290317 0.08474630722546285
0002c0 6a 47 fc 9c 26 27 9a 3f 3d 2c aa 3c 9f 8b c1 3f
       0.02553997357524144 0.13707342588563334
0002d0 b2 99 74 e2 c6 bf 98 3f 9d 07 ee e2 6a 31 e7 bf
       0.02416907078909398 -0.7247824127409676
0002e0 96 7f 4e bf e4 9b 96 3f 14 6f 98 4a 3a 9c c3 3f
       0.022079061676435772 0.15320519106250485
0002f0 3f b0 ae fb 56 a5 b0 3f bf 8a d4 b7 75 00 ad 3f
       0.06502288479413297 0.056644133272376156
000300 8f 75 a4 42 30 0c b3 3f 9e 7c 1d ea ca df a3 3f
       0.07440473200809648 0.03881677730418541
000310 b3 cc 25 a7 b6 76 98 3f 1e 2d c8 42 ef f9 ad 3f
       0.023890356017955038 0.058547474767772764
000320 82 59 d2 cb 0f a8 9a 3f 82 a8 6a 31 34 06 a0 3f
       0.026031729522026044 0.03129733184080498
000330 5e c5 b8 ce fa c4 e0 3f 8d 2c 69 e4 06 6f 91 3f
       0.5240453755888372 0.01702509659871203
000340 70 0e bb a2 9e 5f a7 3f ae 1d d5 a2 7f c3 c6 3f
       0.04565139519175154 0.17784114313893212
